…
  layer_dropout(rate = 0.5) %>%
  layer_dense(units = 256, activation = "leaky_relu") %>%
  layer_dense(units = 128, activation = "leaky_relu") %>%
  layer_dense(units = 64, activation = "leaky_relu") %>%
  layer_dense(units = 3, activation = "softmax")

model %>% compile(
  loss = "categorical_crossentropy",
  optimizer = "adam",
  metrics = c("acc")
)

model
```

```         
Model: "sequential_1"
Layer (type)                       Output Shape                    Param       
================================================================================ 
conv2d_3 (Conv2D)                  (None, 222, 222, 32)            896          
max_pooling2d_3 (MaxPooling2D)     (None, 111, 111, 32)            0             
conv2d_2 (Conv2D)                  (None, 109, 109, 64)            18496         
max_pooling2d_2 (MaxPooling2D)     (None, 54, 54, 64)              0             
conv2d_1 (Conv2D)                  (None, 52, 52, 128)             73856         
max_pooling2d_1 (MaxPooling2D)     (None, 26, 26, 128)             0             
conv2d (Conv2D)                    (None, 24, 24, 128)             147584        
max_pooling2d (MaxPooling2D)       (None, 12, 12, 128)             0             
flatten_1 (Flatten)                (None, 18432)                   0             
dropout_1 (Dropout)                (None, 18432)                   0             
dense_7 (Dense)                    (None, 256)                     4718848       
dense_6 (Dense)                    (None, 128)                     32896         
dense_5 (Dense)                    (None, 64)                      8256          
dense_4 (Dense)                    (None, 3)                       195    


================================================================================ 
Total params: 5001027 (19.08 MB) 
Trainable params: 5001027 (19.08 MB) 
Non-trainable params: 0 (0.00 Byte)  

________________________________________________________________________________ 
```

Una volta definita la rete, essa è stata applicata al training set impostando 20 epoche. Il numero di 
…
